classification/CIFAR/MNIST_net.pt (torch, 248148 bytes, 10 tensors)

conv1.weight f4 [10, 1, 5, 5]
000000 30 fe 94 3e 40 6b 95 bd 82 ca 28 be 1e 5c 80 3e
       0.2910018 -0.07295847 -0.164835 0.2507028
000010 20 b7 00 be 96 48 ef 3d 08 87 35 3c e7 2a 0d 3e
       -0.12569857 0.116837665 0.011079557 0.13785897
000020 b0 09 70 3e 33 bf 57 bc 9e 79 15 3e c2 53 13 be
       0.23441195 -0.013168144 0.14597175 -0.1438742
000030 2f 8a 36 bb 4f 15 10 3d a8 77 a2 bc 58 9f 69 3e
       -0.002785336 0.03517657 -0.019832447 0.22814691
000040 0c b0 4f 3e c3 86 b6 3d b4 b2 07 3e 7c f3 b4 bd
       0.20282 0.089124225 0.13251764 -0.088355035
000050 d4 18 88 bb 22 e4 c7 3d 48 00 7c 3c 36 9f 7b bd
       -0.0041533504 0.0976031 0.015380926 -0.061431132
000060 dc 5b 80 3e 0a 10 0a 3e 84 91 87 3c 17 c5 d2 3d
       0.25070083 0.13482681 0.01654888 0.10291498
000070 d4 32 1e 3a fb 48 80 be bd 96 f8 3d 92 49 8d 3e
       0.00060347957 -0.2505568 0.12138126 0.27595192
000080 64 97 60 be 9d 6d 27 be 2d da b1 be 9f 30 64 3e
       -0.21932751 -0.16350408 -0.34736767 0.22284172
000090 0c d1 28 3e 12 a4 80 bc 9c 66 3a be f9 18 89 be
       0.16485995 -0.015703235 -0.18203205 -0.26776865
0000a0 08 45 30 3e c0 86 de 3d 97 8b b4 3e 6f 49 5a 3e
       0.17213833 0.10865545 0.3526275 0.21317075
0000b0 51 e1 14 3d a5 bf 2b 3e f3 dc 8c 3e 85 12 86 3e
       0.03634769 0.16772325 0.2751232 0.26186004
0000c0 88 b2 0c 3e 75 38 86 3e c8 38 61 be d2 81 f8 bd
       0.1373998 0.26214948 -0.21994317 -0.12134136
0000d0 e3 cf a6 bd 32 75 a5 be b5 5c d9 3c c0 b5 69 be
       -0.0814512 -0.32315975 0.026533464 -0.22823238
0000e0 45 6b b0 be 1e e2 6f be e4 ce a1 3d 11 02 9e bd
       -0.3445684 -0.234261 0.079007894 -0.07715238
0000f0 57 67 bc 3d 69 58 87 3e d7 c2 9b 3e 07 90 6e 3e
       0.09199398 0.2643464 0.30422089 0.2329713
000100 73 2f 1f 3e 22 d3 76 3e 36 f5 98 3e c8 44 5c 3d
       0.15545444 0.24103978 0.2987458 0.053776532
000110 e5 53 b3 bd 15 de 24 be dc bf 2a 3e 4a 95 98 3d
       -0.08756236 -0.16100343 0.16674751 0.0745035
000120 3b 5e 8d be a7 4c 48 3e 77 99 5c 3e e4 21 f4 bd
       -0.27610955 0.1956049 0.21542917 -0.119205266
000130 5d b0 48 be 47 21 d0 be 7b 5c 95 be 72 3f c8 bd
       -0.19598527 -0.4065039 -0.2917212 -0.09777726
000140 b0 4d 02 be 2e be 60 be 53 40 57 be eb 54 d1 be
       -0.12724948 -0.21947548 -0.21020631 -0.408851
000150 5b b9 5a be 2c a1 33 be a8 64 7e be 6a 37 1b bd
       -0.2135977 -0.17541951 -0.24843085 -0.037894644
000160 f3 45 6d 3e d6 e5 88 3e 2d e6 95 3e 8d e7 93 3e
       0.23171215 0.2673785 0.29277173 0.28887597
000170 1a 97 8a 3d 79 8e c5 3e 9c b5 14 3d 43 39 6b 3e
       0.067671016 0.3858526 0.03630601 0.22971062
000180 f1 4e 8e 3e 03 50 bb 3d 3c 8d 69 3e ad 6f b1 3d
       0.27794603 0.091461204 0.22807783 0.086638786
000190 26 8e ba 3d ca 9e 09 3d 0f aa 07 3e 45 94 0d be
       0.09109144 0.0335987 0.13248466 -0.13826092
0001a0 a7 c7 12 3e 64 a7 0c be 29 68 70 3e 47 1a 8e 3e
       0.14333974 -0.1373573 0.23477234 0.27754423
0001b0 da 22 b9 3d bc 25 18 3e 75 8c 62 3e 19 b5 26 3e
       0.090398505 0.14858145 0.22123893 0.16280021
0001c0 b7 dd 6f 3e 00 57 9c 3e e6 f4 9b bc 10 4f 25 3e
       0.23424421 0.30535126 -0.019037675 0.16143441
0001d0 c8 93 94 bd ab 7c 00 3e 3c 4f ad 3c cd a0 d9 bd
       -0.072547495 0.12547557 0.021155946 -0.106263734
0001e0 22 c8 0c be 8a ca 8d be cc fc 3c 3c ab e4 97 bd
       -0.1374822 -0.27693588 0.011534881 -0.07416662
0001f0 8a 88 59 3e 1c 4b 9a bd c5 00 d5 bd 56 cb 7c 3d
       0.21243492 -0.07533857 -0.104005374 0.061717354
000200 cc cb 6b 3d 96 e8 0e bc 58 30 ae be 91 d6 a2 bc
       0.057567403 -0.008722445 -0.34021258 -0.019877704
000210 17 6f 83 3e b5 21 23 3e 19 45 a9 bd ce 1c 63 be
       0.25670692 0.15930827 -0.082651325 -0.22178957
000220 93 78 03 3d 3e 74 b7 3e 25 73 d6 3c 7d ed 8a bd
       0.03209741 0.35830873 0.026177952 -0.067835785
000230 a7 90 06 be e5 27 0a 3d bd cd 5f 3e 71 3e df bd
       -0.13141118 0.033729453 0.21855827 -0.10900582
000240 48 48 33 be 83 d8 21 3c 60 95 5a 3e a4 85 22 3e
       -0.17508042 0.009878281 0.21346045 0.15871292
000250 eb fc 91 bd 85 17 fd 3d d8 57 a9 3d f2 41 af 3d
       -0.071283184 0.123580016 0.08268708 0.085575
000260 2c 3b 64 3d 22 31 ae be 99 65 5a be 7c 2e d2 3d
       0.055720493 -0.3402186 -0.21327819 0.102627724
000270 a8 b8 eb 3d 68 7a 4f 3e 27 6d a6 bd ac 8d 75 be
       0.1150983 0.20261538 -0.08126288 -0.23979825
000280 89 67 d8 bd 9d a8 91 3e a0 c9 d2 3e 23 42 23 3e
       -0.10566623 0.28448954 0.41169453 0.15943198
000290 2b 30 09 be ce 96 4f 3d 37 99 2f 3e 83 96 5e 3e
       -0.13397281 0.050680928 0.1714829 0.21737103
0002a0 14 e5 cc 3e 9c d0 cb 3d d6 41 59 be bb f4 f6 bd
       0.40018523 0.099518985 -0.2121652 -0.120583974
0002b0 ec f4 31 be d2 e6 99 3e 20 20 a9 3e 3b 10 89 bd
       -0.17378587 0.30058914 0.33032322 -0.06692549
0002c0 71 0a 4d 3e 97 ec f7 3d a1 0d 96 3e 22 fe 47 be
       0.20023514 0.12105673 0.29307273 -0.19530538
0002d0 d9 88 c0 3d b3 d5 2b 3e 77 16 50 3e 5a 7f 04 3e
       0.094011016 0.16780739 0.2032107 0.12939206
0002e0 e2 bd d7 be 2c 46 e7 3c e5 90 8a 3e 3b eb 56 3e
       -0.42137057 0.028231703 0.2706367 0.20988171
0002f0 b4 fb 5b be 5e 39 db be ab 18 3f 3e 5b d5 86 3e
       -0.21482736 -0.42817205 0.18661754 0.26334652
000300 f1 7b 40 bd bd 4f d4 be b5 ec 54 be 0c 16 65 3e
       -0.0469932 -0.41467085 -0.20793422 0.22371691
000310 17 56 26 3d 67 6e 68 be 64 eb e0 be 0a 17 5b be
       0.040609445 -0.22698365 -0.4392959 -0.21395507
000320 a6 84 b5 be 08 d9 b7 be d5 f1 72 be 14 55 83 3d
       -0.35452765 -0.3590777 -0.23725064 0.06412712
000330 2a 0d bf 3e 8a bb db be 49 d2 4e be 6a 7a 15 bd
       0.3731473 -0.42916518 -0.20197405 -0.036493696
000340 51 79 8c 3e cb 93 df 3d b7 c4 ac be b6 ce 24 be
       0.27436307 0.10916861 -0.33743832 -0.16094479
000350 30 0e 20 bc d8 c1 a1 3e d1 aa 2a 3e bd 03 82 be
       -0.009769008 0.31593204 0.16666724 -0.25393477
000360 db e8 75 bd 45 6e e3 3d da 87 14 3e 03 1f cf 3d
       -0.06003652 0.111050166 0.14504948 0.10113337
000370 fc 30 e7 bd 13 b1 4d bd a9 b7 7d 3e 1f 14 b5 3e
       -0.1128864 -0.0502177 0.24777092 0.35366914
000380 ec 53 d7 3e 36 fd 06 be 88 c6 74 3e f6 ca b1 3e
       0.42056215 -0.1318253 0.23903859 0.3472516
000390 1b d5 02 be ed ee a8 be 91 b2 8d 3e f9 3a bd 3e
       -0.12776606 -0.32994786 0.27675298 0.36959055
0003a0 65 5d 05 3e 90 30 9c be 8a 34 7a be a3 04 40 3e
       0.13023908 -0.305058 -0.24434105 0.18751769
0003b0 5c 6e cb 3c 46 dd 47 3e 86 e5 1a be 15 83 98 be
       0.024832897 0.19518003 -0.15126619 -0.29787508
0003c0 e9 c8 3e 3c 05 19 29 3e 9a fd c7 3d 9d 5b 51 be
       0.01164458 0.1651345 0.097651675 -0.20445104
0003d0 47 e0 45 bd 00 6b 8d bd ad fd 8a 3d 19 9f 7e 3e
       -0.04830959 -0.06905174 0.06786666 0.24865378
0003e0 fb fd 7d 3d c2 69 8d be
       0.062009793 -0.2761975

conv1.bias f4 [10]
000000 28 f8 a2 bd fb 1a 5d bd 66 d3 8e 3c 8e 55 ae 3d
       -0.07957488 -0.05398081 0.017434787 0.08512412
000010 53 57 06 bc b0 e6 3d be b7 2f d0 ba a8 98 dd 3c
       -0.008199531 -0.18545032 -0.0015883361 0.027050331
000020 ad 75 98 3d a3 12 6b bd
       0.0744432 -0.05739082

conv2.weight f4 [20, 10, 5, 5]
000000 ce a1 83 3d e4 0d 8e ba 37 d3 82 3b 1c a9 e8 3c
       0.06427346 -0.001083788 0.003992464 0.02840095
000010 d4 ec 04 3d cb 00 55 3d ae 53 11 3c 85 d3 49 3d
       0.03245242 0.05200271 0.008870048 0.049273986
000020 c0 7f 9f 3d 6f 5d 92 bc c7 38 11 be da 8a 36 be
       0.07788038 -0.017866818 -0.14181815 -0.17826405
000030 36 0e 06 be 5e 5f c9 bc 7c 47 90 bd 39 84 ce bd
       -0.13091359 -0.024581607 -0.070448846 -0.10083813
000040 a8 05 1a be 38 e9 a2 bd 11 67 fc bd 4a c7 d3 bd
       -0.1504122 -0.07954639 -0.12324346 -0.10340746
000050 82 91 ac bd 27 67 57 3d bb 26 45 bd 1d 90 07 bd
       -0.08426191 0.052588608 -0.04813264 -0.03309642
000060 c5 3b ac 3b f8 20 1c 3e 80 2d 18 3e 71 30 06 3e
       0.0052561485 0.15246952 0.14861107 0.13104416
000070 b5 02 cd ba 24 c4 f8 ba 1e 26 a9 3c 6b 2a fe bc
       -0.0015641066 -0.0018979353 0.020648059 -0.031026086
000080 e2 b3 46 3d 91 84 c5 bc a6 b4 39 3d 6e 95 10 be
       0.048511393 -0.024111064 0.045338295 -0.14119503
000090 a1 b2 7b bd e4 36 8f bd 0d 12 8d bd 27 54 ed bd
       -0.06144965 -0.069928914 -0.068882085 -0.115883164
0000a0 32 c3 81 bd 48 7c 98 bb 9e a1 26 bd 44 e8 75 bd
       -0.06336059 -0.0046534874 -0.040681474 -0.06003596
0000b0 c4 00 d5 bd 4a 92 bc bc 14 af f4 3c 16 33 a9 bb
       -0.10400537 -0.023018975 0.02986864 -0.0051635606
0000c0 a7 dc 72 3c a0 e8 40 3d 76 50 68 3d 67 90 dc 3d
       0.014823115 0.04709685 0.05671736 0.1076973
0000d0 8f ea 94 3d 8a 31 a7 3d 1a d5 39 3e a3 65 d4 bd
       0.07271301 0.08163746 0.18147698 -0.10370948
0000e0 58 58 27 3d 0c 07 eb 3c 03 58 b9 3d 6e fb 0c 3c
       0.040855736 0.028689884 0.0904999 0.008604867
0000f0 5a 9f 35 be 43 16 12 be ac 37 9b bd 6c 52 b5 bd
       -0.17736569 -0.14266305 -0.07578978 -0.08853611
000100 83 52 3e be d0 6d 8a bd 82 62 50 3d 71 d4 fa bc
       -0.18586163 -0.06759226 0.050875194 -0.030618878
000110 c6 90 f0 3b de 76 c9 3a 48 ec cb 3d 3a 21 05 3e
       0.007341477 0.0015370508 0.099571764 0.13000956
000120 69 e6 86 3d 14 14 df 3d a9 f3 79 3d dd 49 bb 3d
       0.06586916 0.108925015 0.061023388 0.09144948
000130 d1 74 25 3e 9c 1d 31 3e 61 cb 35 3e 97 18 38 3e
       0.16157843 0.17296451 0.17753364 0.1797813
000140 a6 f9 65 3b 24 17 7a bc 2e f1 94 3d a5 cd c5 3d
       0.003509143 -0.015264306 0.07272564 0.09658364
000150 85 2b 8d bd 39 b4 f1 bd 8d 6a 65 be a0 ff 33 be
       -0.06893066 -0.11801953 -0.22403927 -0.17577982
000160 b2 b9 38 be c7 84 3f be 3f 99 19 3d 06 de cb 3d
       -0.18039587 -0.18702994 0.037499662 0.09954457
000170 1c 65 a2 3d c4 a7 22 3e ef 86 02 3e b8 73 a3 3d
       0.07929441 0.1588431 0.12746786 0.07981056
000180 bb 1f 05 3e 29 1f 02 3e 53 83 8f 3d a3 42 89 3c
       0.13000385 0.12707199 0.0700747 0.016755408
000190 61 f7 2b bd 68 f8 18 bd d9 b4 3f 3c d9 79 a7 3d
       -0.041983966 -0.037346274 0.011700832 0.081775375
0001a0 a5 f5 89 3d 07 d9 98 3d b5 c3 5b 3d 72 bf 08 3e
       0.06736306 0.0746327 0.053653438 0.1335428
0001b0 4d f2 9b 3d 81 50 a3 3d 4a 41 42 3b 3f 16 16 bd
       0.076145746 0.07974339 0.0029640966 -0.03664231
0001c0 a8 0d 13 bd b3 8b 64 3c b5 3d 1b bc a0 e9 a3 bd
       -0.035901695 0.0139493225 -0.009475161 -0.08003545
0001d0 26 88 c2 bd e6 ad 6a be 77 6d 1b be 83 c6 20 be
       -0.094986245 -0.229179 -0.15178476 -0.15700726
0001e0 c4 05 4c bc c4 d9 92 bd 2b 97 83 3b 2c 89 c7 3c
       -0.0124525465 -0.07170442 0.0040158234 0.0243574
0001f0 59 85 4a bd d3 1e 61 3d a2 2a d7 3c f9 4d 86 3d
       -0.049443576 0.054961037 0.026265446 0.06557841
000200 37 f8 9d 3d d1 6f 8c 3c 7a 65 97 3c 0b c6 cd bc
       0.07713359 0.017143162 0.018481005 -0.025118848
000210 6d 3e 5b 3c a2 70 02 3d 08 af 2c 3d e8 a0 dc bd
       0.013381583 0.031845696 0.04215911 -0.10772878
000220 d2 76 fe bd 13 75 92 bd 5d 1e f8 bd 30 03 d8 bc
       -0.12425007 -0.071512364 -0.12115166 -0.026368707
000230 3f 3a 0d be 6a ea b4 bc c2 1d 90 bd 7a 91 c7 bd
       -0.1379175 -0.022084434 -0.07036926 -0.09744544
000240 47 96 69 bc 1b 80 bd 3d 47 06 07 3c 86 01 67 bd
       -0.01425702 0.0925295 0.008241243 -0.056397937
000250 bd ec b7 3b 12 a2 b7 bc 39 9c bd 3d 72 d9 bd 3d
       0.005612938 -0.022416148 0.09258313 0.0926999
000260 ca 73 94 3d bb 44 2b 3d 2c 74 bd 3d d9 b9 03 3e
       0.072486475 0.041813593 0.09250674 0.12863864
000270 e2 a8 c4 3d 49 25 ac 3b d4 a7 88 bc 1d 52 53 bc
       0.09602524 0.005253468 -0.01668159 -0.012897995
000280 0d 8f 2e be e2 9d 03 be 10 8c 2b be 19 cd 09 be
       -0.17046757 -0.12853196 -0.16752648 -0.13457145
000290 a8 0c fc bd 06 c8 08 bd 20 89 b4 bd 6f 0e 0b be
       -0.123071015 -0.033393882 -0.08815217 -0.13579725
0002a0 76 02 9d bd d8 3f 04 be 9f 07 ec bb f1 23 c0 3d
       -0.07666485 -0.1291498 -0.007203057 0.09381855
0002b0 ed 7f e2 3c 13 fd 9a 3a c9 bf 20 bd 8c 2f 37 be
       0.02764889 0.001182469 -0.0392454 -0.17889231
0002c0 09 f8 9c 3c 68 5e 30 3d ff 20 a0 3d 3f fa 9b 3d
       0.019161241 0.043058783 0.078187935 0.0761609
0002d0 66 c5 2e be 28 5f 5a 3d e3 6a 06 3d 0e 82 ba 3d
       -0.17067489 0.053313404 0.03281678 0.09106837
0002e0 be 80 16 3e bb 7b ca bd 1f a3 84 bd 06 d4 86 bd
       0.14697549 -0.09886881 -0.064764254 -0.06583409
0002f0 08 a0 67 3d ee f3 b1 bd a6 9b 4f be 0c 64 23 bd
       0.056549102 -0.08689104 -0.20274219 -0.039890334
000300 f8 02 00 3a fa 2b 4f bd 06 9c 12 be 6d 58 cc 3d
       0.0004883255 -0.05057905 -0.1431733 0.099778034
000310 16 a3 3e 3d 72 b1 aa 3c d0 3d 63 bd 25 fd 30 bc
       0.04654225 0.020836566 -0.05547887 -0.010802542
000320 3a 3b 94 bb a0 5d c9 3d ce 85 7e 3d ba 59 01 3e
       -0.004523662 0.09832311 0.062139325 0.12631884
000330 69 1e df 3d 9c dc 6d be 58 d7 db bc 25 61 8c bc
       0.10894472 -0.23228687 -0.026836082 -0.017136166
000340 fa 86 8d bd 54 e3 bd ba 32 a1 c7 bd d3 b7 0d be
       -0.0691051 -0.0014487305 -0.097475424 -0.13839655
000350 6c bb b2 bd 68 c8 f0 bd eb a1 40 bd 42 f1 32 3d
       -0.08727154 -0.117569745 -0.047029417 0.043687113
000360 8f 42 a7 3d 97 4a 8a 3d aa dd 95 3d c3 98 6e 3d
       0.08166992 0.06752508 0.0731767 0.058251154
000370 87 46 c6 3c f5 36 d7 3d a0 64 c5 3d dc ca a9 3d
       0.024203552 0.10508529 0.09638333 0.082906455
000380 05 bc 0b be d2 af 88 3c 84 a3 65 3b e6 92 02 3d
       -0.13645943 0.0166854 0.003504009 0.031878375
000390 1a f5 04 bd 60 60 ff 3c 4c 7f 9c 3c d4 67 77 3d
       -0.03246031 0.031173885 0.019103669 0.060401753
0003a0 19 1f 8e 3c b8 53 44 b9 ed 09 da 3d 0b 0e 0d be
       0.017348813 -0.00018723204 0.106464244 -0.13774888
0003b0 dc 68 5d bd 7e 94 a8 bd 1d 15 75 bb f6 2a 2e 3d
       -0.05405508 -0.08231448 -0.0037396618 0.04252144
0003c0 ef 5d 16 be e6 cd dc bd 8a 53 13 be 90 7f 0a be
       -0.1468427 -0.107814595 -0.14387336 -0.13525224
0003d0 83 10 4e be f8 65 27 bd 2e 66 65 3c 2a e5 3d bd
       -0.20123486 -0.04086873 0.014001412 -0.046361126
0003e0 83 65 41 bd 14 48 b9 bd 53 e3 c3 bc ec 2c b8 3c
       -0.04721595 -0.09046951 -0.023912108 0.022482358
0003f0 d1 af 49 3d d9 6e 00 3d 40 8e fd 3c 83 bd f9 3c
       0.049239937 0.031355713 0.03095162 0.030485874

conv2.bias f4 [20]
000000 7f 06 b1 3d 18 51 28 be 74 b4 9e bb ba c4 33 be
       0.08643817 -0.16437185 -0.004843289 -0.17555514
000010 5e 19 2b be 4b 3e de 3d 0d 97 ff bc 3f 12 a5 3d
       -0.16708896 0.10851725 -0.031199956 0.08060121
000020 7e 36 cb bd d9 91 1a 3d 88 eb 82 3d 9c f5 85 bd
       -0.09922503 0.037736747 0.0639258 -0.06540987
000030 87 5d b4 bc e8 09 86 3c 2b 94 98 3c c8 f8 05 3d
       -0.022017254 0.016362146 0.01862534 0.03270796
000040 7e 60 64 3d 98 e1 d0 3d 3a f5 13 3c 4f 4d 79 bc
       0.055756085 0.101992786 0.009030635 -0.015216186

fc1.weight f4 [160, 320]
000000 59 e1 10 bc 9a 41 61 3d 60 65 d9 bc 71 6a a4 bd
       -0.00884279 0.054994203 -0.026537597 -0.080281146
000010 b7 8c 0d 3e 52 ad 4e 3d ac cd 2b 3d 99 d5 88 bd
       0.1382321 0.05045826 0.04194419 -0.066813655
000020 82 9b fc 3d 5d 4c 23 3d 34 4c 77 bd c4 31 b5 bc
       0.12334348 0.039867748 -0.060375407 -0.022118457
000030 42 5c 3b 3d c8 1b 4c 39 9e c6 c6 bb b8 87 64 bd
       0.04574228 0.00019465305 -0.0060661575 -0.055793494
000040 90 f9 30 be 4e 77 f3 3c 33 89 4c bd 56 21 bf bc
       -0.172827 0.029719975 -0.04993553 -0.023331326
000050 b0 74 87 3c ad 34 2c 3c 6b 01 fd bc ea 12 82 bc
       0.016535133 0.010510606 -0.030884465 -0.01587816
000060 3a 08 ae bc 19 7b 45 bd 7d 28 9c 3d a3 ac 07 3e
       -0.021244157 -0.0482131 0.0762491 0.1324945
000070 06 84 ef bd 0c 90 03 bd 50 38 52 3d a5 75 36 3d
       -0.11695103 -0.032119796 0.051323235 0.04454579
000080 d2 da 9a bd 66 1d c6 bd 21 60 2e 3c 72 ef 9a 3d
       -0.07561268 -0.09673576 0.010643036 0.07565202
000090 bc c7 83 bd 1c ca 12 3d c5 73 87 bd 8d 7f a6 3d
       -0.06434581 0.035837278 -0.06613878 0.08129797
0000a0 8b 0b 86 bc 34 39 1d bd 79 0d e6 ba ec 7c cb bb
       -0.016362926 -0.03838463 -0.0017551623 -0.00620996
0000b0 23 6d 11 3d f5 8c 02 be 0a a7 84 3d a7 30 0a 3d
       0.03550447 -0.12749083 0.06477173 0.033737805
0000c0 71 75 9d bd 32 f8 76 bc de 00 e8 3c f3 87 e5 3d
       -0.07688416 -0.015073823 0.028320726 0.11207571
0000d0 88 d1 30 bd b7 42 26 bd 00 27 29 3d 17 72 93 bd
       -0.043168575 -0.040590968 0.04129696 -0.07199495
0000e0 d7 c5 77 bd 3a b5 b1 bc 44 0c 0d 3e 30 d1 b8 bb
       -0.06049141 -0.02169286 0.1377421 -0.0056401715
0000f0 92 6b f0 3d 97 cd be 3d c8 2b 46 3d 74 85 da 3d
       0.117392674 0.09316557 0.048381597 0.106699854
000100 e9 54 1e bd 83 ee c0 bd 1a a9 85 3d e3 30 6d 3d
       -0.038655195 -0.094204925 0.06526394 0.05790795
000110 c0 d9 a1 bd b9 d3 42 bd 54 c6 df 3d a8 9f 26 3b
       -0.07902861 -0.047565196 0.109265 0.0025424752
000120 da a3 30 bd 52 c4 f9 3c c0 3f 2a bd e3 c1 2b bd
       -0.04312501 0.03048912 -0.041564703 -0.04193295
000130 d1 52 bc bc dd 96 5e 3d e8 f9 7c bc 60 a8 3c bd
       -0.022988709 0.054343093 -0.015440442 -0.046059012
000140 f0 36 0f bd 78 66 01 bd 24 d4 3a 3d 6b 58 c1 3d
       -0.0349645 -0.031591862 0.04561247 0.094406925
000150 05 c0 f5 3c 7f e5 7b 3d 65 38 b0 3d 99 6e 45 bd
       0.029998789 0.06149816 0.086045064 -0.048201177
000160 c1 ba 40 bc e6 3c bc 3c c2 82 8f bd d1 6a 07 bd
       -0.011763276 0.022978257 -0.07007362 -0.033060852
000170 94 64 68 bd 27 13 94 3d c2 0d 7f bc 6a ee 01 ba
       -0.056736544 0.072302155 -0.015567245 -0.0004956486
000180 b7 15 bc 3c ef 54 47 bd 60 ed b2 bc 5f dc d1 bc
       0.022959573 -0.048664983 -0.021841705 -0.025617776
000190 f6 47 be bc e3 77 a8 bd 21 72 64 3d 59 db c6 3d
       -0.023227673 -0.082259916 0.055772904 0.09709806
0001a0 91 05 27 3d cf 86 5d bc f2 9c 9d bd 09 1a 67 bb
       0.040776793 -0.01352091 -0.076959506 -0.003526332
0001b0 e9 3c 99 3d 0e 45 9a 3c cf 9d f5 bd f3 32 e7 bd
       0.07482321 0.018831756 -0.1199299 -0.11289015
0001c0 9a 80 cd 3b b2 27 06 bd 7e 29 aa bd e8 b4 a2 bd
       0.006271434 -0.0327527 -0.08308695 -0.079446614
0001d0 6a e3 65 bd 02 b6 e2 3d 9c 0e b9 bc a8 8b df bd
       -0.056125082 0.110698715 -0.022589974 -0.10915309
0001e0 52 f9 da 3c 15 d1 a9 3c c7 3f b8 bd cc 84 a2 b8
       0.026730213 0.02072958 -0.089965396 -7.749497e-05
0001f0 06 dc 13 3e 3f ef 04 3d 8b 39 9a bc e0 72 f3 bc
       0.14439401 0.032454725 -0.018826267 -0.029717863
000200 6b b8 ee 3d 26 bb 97 3d 9c e7 b7 bc 30 84 c1 bc
       0.11656269 0.074087426 -0.022449307 -0.023622602
000210 2a 5a 8c bd 73 57 8c bd 8d bc d9 3d 8d 9b fe 3c
       -0.06853135 -0.06852617 0.10631666 0.031080032
000220 ba 78 bb 3c 64 0a 1d 3c c3 a7 ab 3b 91 45 61 bc
       0.022884715 0.009584997 0.0052385046 -0.013749496
000230 53 e0 4a bc 73 c0 48 bd 6a 5d ac 39 4f 60 52 bd
       -0.012382585 -0.04901166 0.00032875995 -0.05136138
000240 7f 74 65 3c f2 18 74 3d 53 e9 48 3d 5b 56 d3 bd
       0.014004826 0.059594102 0.04905064 -0.103192054
000250 45 04 f6 3c aa f4 62 3c 33 83 92 bd 3a a0 0d be
       0.030031333 0.013852278 -0.071539305 -0.13830653
000260 39 89 e7 3c de 86 3d 3d 64 00 6d 3d ec 93 be bd
       0.028263675 0.046271197 0.0578617 -0.093055576
000270 fd e8 92 bc cb b2 86 3d 75 60 f4 bb 31 1b c0 3c
       -0.017933363 0.06577071 -0.0074577876 0.023450466
000280 27 90 ab bd 4f 86 93 3b d6 8d 2e bb d1 be d5 3d
       -0.08377104 0.004502095 -0.0026634834 0.10436786
000290 0e b9 dc 3c 10 e2 a0 3d 31 4d 0f 3e cb 16 b4 3d
       0.02694371 0.07855618 0.1399429 0.0879341
0002a0 b5 76 88 bc f9 60 55 3d 41 54 da bd 1c dc 2a bc
       -0.016658166 0.052094433 -0.106606014 -0.010428455
0002b0 ee 05 7d 3d f2 12 15 3e 3b bc 57 3d c8 91 21 be
       0.061773233 0.14558008 0.052669745 -0.15778267
0002c0 83 c5 20 3c 4f 0f 24 3d 2f 0b 66 3d f3 cd b3 bb
       0.009812715 0.040053662 0.05616301 -0.0054871975
0002d0 0a f5 ab bd ba bb 4c bd 1d fd dd 3d aa ca af 3d
       -0.08396347 -0.049983718 0.10839293 0.08583577
0002e0 c4 5d 7c 3c 40 44 a6 3c c5 a1 0f 3d 07 46 eb bc
       0.015403215 0.020296216 0.035066385 -0.028719915
0002f0 38 2a b4 3d ce cb 29 3c 1b fe 94 bd 4a 39 a3 3b
       0.08797115 0.010363532 -0.07275029 0.0049811946
000300 cd 3b 9e bd 57 f6 56 3c 74 9d b7 3c 14 a6 57 bd
       -0.0772625 0.013120255 0.022413947 -0.05264862
000310 39 b3 36 3d 79 8e 74 3c 0d a4 93 bd f0 52 8a 3d
       0.044604514 0.014926546 -0.072090246 0.067541
000320 78 f2 40 bd ce d7 04 bd 24 77 06 3e aa 2b 15 3e
       -0.047106236 -0.03243237 0.13131386 0.14567438
000330 03 a1 bf bc fd 62 28 bd 55 c6 4a bd cb 68 0c bc
       -0.023392206 -0.041110028 -0.04950555 -0.0085699065
000340 9b c2 d5 bd aa 97 2c 3d f1 3e b2 3d 21 eb bd 3d
       -0.10437509 0.042136826 0.08703411 0.09273363
000350 33 c7 4d bd fe bf 43 bd ac f2 9d bd 64 2f 5b bd
       -0.0502388 -0.04779052 -0.077123016 -0.053511992
000360 09 fa 9c bc b1 73 25 bd b5 ec 03 bc 51 33 6e bd
       -0.019162195 -0.040393535 -0.008052041 -0.058154408
000370 8d 66 09 bd 7f 09 da 3c 77 17 5c 3d 1d 5e a0 3d
       -0.033545066 0.026615856 0.053733315 0.07830451
000380 b8 e1 a9 3d aa 67 61 bd 90 f4 2e bd 39 c7 62 3d
       0.082950056 -0.055030502 -0.0427137 0.055365775
000390 8d fe 69 bd 8a dc a8 3c e8 59 d1 3b cc 99 21 bc
       -0.057127524 0.020612974 0.0063888915 -0.009863328
0003a0 a3 31 ab 3d 31 d9 7b 3c d9 1e 91 bd 9b 45 32 3d
       0.08359077 0.015371607 -0.07085962 0.043523412
0003b0 a3 00 84 bc 56 54 3b 3c 33 15 36 bd a2 e9 cf 3d
       -0.016113585 0.0114336815 -0.04445381 0.10151984
0003c0 49 cf cc bd 30 f3 85 bd 5a 2e 66 3d 34 43 53 3d
       -0.10000474 -0.06540525 0.056196548 0.05157776
0003d0 b0 94 da bc b3 df 0a bd a7 d4 e7 ba d2 34 38 bd
       -0.026682228 -0.033904742 -0.0017687277 -0.04497225
0003e0 17 c7 a0 bc ba b1 4b 3d 65 81 36 bc 50 70 e2 bd
       -0.019626183 0.04973004 -0.0111392485 -0.11056578
0003f0 64 31 8c bd ac 9e 94 3c 0f d2 d5 bb 12 26 66 bd
       -0.06845358 0.018142067 -0.006525285 -0.05618865

fc1.bias f4 [160]
000000 2b 7d 2e 3c 27 44 d1 3c b8 b4 72 3b 35 7a c2 3b
       0.01064996 0.025545193 0.0037033986 0.0059349784
000010 36 50 84 3d 96 cd 0c 3d 1b 7d 16 bd f3 4c 11 bc
       0.064606115 0.03437575 -0.036740404 -0.008868444
000020 e8 77 05 3e 7c b1 3c 3d b8 b4 8d 3b 49 6f b6 3d
       0.13034022 0.0460677 0.004324522 0.08907945
000030 06 48 8b 3d 41 a3 18 3d e3 8d ec 3d 83 a4 d2 3c
       0.06800847 0.037265066 0.115505 0.02571321
000040 b6 65 19 3d 39 6d de 3d 58 4c cd 3d fb a8 67 3d
       0.037450515 0.10860676 0.10024327 0.056557637
000050 02 b4 18 3d 1e b0 ae 3c 90 2d 73 3d 71 80 0e 3d
       0.037281044 0.021324214 0.059369624 0.03479046
000060 a9 60 77 3d 69 ab 5a 3d 0c df a7 3d 7c 96 e6 3c
       0.060394917 0.053386126 0.0819684 0.028147928
000070 9f 0b 93 3d 4d b7 55 3e c5 8b c6 3d fc b9 0e 3c
       0.07179951 0.20870705 0.09694628 0.008711334
000080 25 e5 ea 3c 4b 98 35 3d 5e 35 09 bd b5 0e f7 3b
       0.028673718 0.04433469 -0.03349816 0.007539595
000090 bb b6 15 3d 38 98 12 3d 58 f4 69 bd de 6b af 3d
       0.03655122 0.0357897 -0.05711779 0.08565496
0000a0 18 86 b8 3d d5 d6 b8 3d 74 38 19 bd 61 77 4f 3d
       0.09009951 0.09025351 -0.037407354 0.050650958
0000b0 d1 de 8a 3c 10 15 19 bc 07 49 e8 3d e2 85 69 3d
       0.01695195 -0.009343401 0.11342054 0.057012446
0000c0 c6 2f cd 3d 70 ea 88 3d 18 bf 5b 3d b0 ba 30 3e
       0.10018878 0.066853404 0.053649038 0.17258716
0000d0 1d a1 10 3e 58 07 da 3d 03 54 61 3d 8b f7 c2 3d
       0.1412396 0.10645932 0.05501176 0.09519871
0000e0 0f 12 9d 3d 8c 0b 32 bd 3a 15 e5 3d 20 38 9d 3c
       0.0766946 -0.043468043 0.11185689 0.019191802
0000f0 da be 63 3d 8e 92 00 3d 0c fa 31 3c 2a 4e 16 3c
       0.055601932 0.031389765 0.0108628385 0.009173909
000100 ec dc fd 3d 84 58 c7 bc 76 33 df bb 02 a7 e1 3d
       0.12395653 -0.0243342 -0.0068115545 0.11018182
000110 71 3d c6 3c ed 49 05 3d 49 ae 29 3c 6c 35 e3 3d
       0.02419922 0.032541204 0.010356494 0.11094174
000120 9c ff cc 3d fb 7e 0b bd 2e f7 ca 3b 8e bc 9c 3d
       0.10009691 -0.034056645 0.006194017 0.076531515
000130 eb ce 9d bd 67 e1 37 bd 4a dd 53 3d b8 2c bc 3d
       -0.07705482 -0.044892695 0.05172471 0.09188217
000140 d4 b1 d4 bb 4b c9 13 bc 7f a2 bb bc 18 e5 80 3d
       -0.0064909253 -0.00902016 -0.022904633 0.06293696
000150 1e f1 49 ba fd 85 dc 3d fc 20 13 3d 6d d1 1a 3e
       -0.0007703471 0.10767744 0.03592013 0.15118952
000160 33 89 36 3d ea 10 69 3d 38 d3 6a 3d 0f 02 a5 3d
       0.044564437 0.056900896 0.05733034 0.08057033
000170 02 a8 ae 3d 0b 55 97 3b ea a7 04 3e 51 bf 2a bd
       0.08528139 0.004618292 0.12954679 -0.04168636
000180 1b 75 c4 3c c2 5d b2 3d f0 e6 29 bd a0 e0 cc 3d
       0.023981621 0.08709289 -0.041480005 0.10003781
000190 4c 7f 20 3c 63 18 8e 3b 87 01 c0 3d bc ee f3 3d
       0.009795975 0.004336403 0.09375291 0.11910769
0001a0 af 29 05 3c 2c 46 05 3d e5 67 a7 3d 35 0e d2 3d
       0.008127614 0.032537624 0.08174113 0.10256616
0001b0 e6 bd 26 3d cd 72 2e bc c3 9b b1 3c 88 86 b6 bb
       0.040708445 -0.010647488 0.021680718 -0.0055702366
0001c0 75 6d a1 3c 38 ad 49 3d 88 a7 9e bc 81 d5 0e 3e
       0.019705513 0.04923746 -0.019366995 0.13948633
0001d0 1a 25 57 3c 2b 4e a9 3d 9e ec f2 bb 3d 2c 29 3d
       0.013131404 0.082668625 -0.007413461 0.041301955
0001e0 b7 a2 a2 3d 4f c4 12 bd 1b 93 24 3e 9f 57 fb bc
       0.07941192 -0.035831746 0.16071741 -0.03068143
0001f0 62 56 e9 bb 31 97 06 bd 46 9b 03 3d 8f 38 50 3d
       -0.0071208933 -0.03285903 0.032130502 0.05083519
000200 03 58 a1 bd 8d ac 6c 3d 30 c1 c3 3c 13 47 9d bd
       -0.07878115 0.057781745 0.02389583 -0.07679572
000210 6a 3b e3 3c e6 74 be ba 24 61 3a 3d da 3e 4c 3d
       0.027738292 -0.0014530688 0.045502797 0.049864627
000220 b4 87 b8 bb d4 02 51 bd fc 8e 23 3e 4a ae 43 3d
       -0.0056314114 -0.051028088 0.15972513 0.047773637
000230 86 a7 ab 3d cb 1c 61 bc 89 fa 49 3c 89 b8 42 3d
       0.08381562 -0.013739775 0.012327799 0.047539268
000240 50 58 dc 3d 82 5a b4 3d 41 4d 9d bc 20 35 6b 3d
       0.10759032 0.088063255 -0.019201877 0.05742371
000250 87 d2 d2 3c 5c 2a 69 3d 5a b0 f7 3d 69 fe 5b 3d
       0.025735153 0.056925163 0.12094183 0.05370942
000260 cb 31 9f 3d c1 fd 0a 3c d5 4f 23 bd 49 2c 38 bb
       0.07773169 0.008483351 -0.039871056 -0.0028102568
000270 e4 b6 a1 3b 07 7b de 3d 3e e4 b2 3c e3 27 7d 3d
       0.0049351323 0.10863309 0.02183735 0.061805617

fc2.weight f4 [10, 160]
000000 cb 9b 16 be 1a 73 8a bc 5f ab ef 3d 22 96 12 3e
       -0.14707868 -0.016900588 0.11702608 0.14315084
000010 1f b7 7a bd ee 3c 40 3d 09 a1 80 3d b3 8f 4f 3c
       -0.061209794 0.046933107 0.06280715 0.012668538
000020 71 83 68 be 8c 15 d4 3d 01 c3 1f 3d 6d a5 a0 bc
       -0.22706391 0.10355672 0.03900433 -0.019610131
000030 6f da 6c bd 48 0e 9d 3d 7f 54 c5 3c f7 b2 75 be
       -0.057825502 0.076687396 0.024088142 -0.23994051
000040 bb 25 83 3d 7c 75 05 be c5 10 b1 3d 78 33 9f bd
       0.06403681 -0.13033098 0.08645777 -0.07773489
000050 85 43 5c 3e ff c8 0b 3d 73 7e e1 3d c6 53 e2 3d
       0.21510132 0.03412723 0.110104464 0.11051135
000060 0b 3b 81 3d d5 84 b2 3d 6c 65 fe bd 7c b6 17 be
       0.0631009 0.08716742 -0.124216884 -0.14815706
000070 36 c6 84 3d cb d4 b5 bd 2f a1 84 3d af 42 31 be
       0.06483118 -0.08878478 0.06476056 -0.17310594
000080 b9 e8 d6 bc 2f 1e 8b 3d 25 26 31 bb 2e 0a 94 3d
       -0.026234018 0.067928664 -0.0027030793 0.07228504
000090 21 9a 37 3d e9 3f c1 3d 0d 65 78 3c 1c 7d 27 bd
       0.044824723 0.09436018 0.015160811 -0.040890798
0000a0 29 14 1b be 7c 1f 9e bc 87 63 a4 bd c8 05 3b 3d
       -0.15144409 -0.019302122 -0.08026796 0.04565981
0000b0 db b2 90 b9 6a 12 2c bd 28 6f b0 3d b0 cc 97 bd
       -0.00027599078 -0.04200975 0.08614951 -0.07412088
0000c0 48 c0 86 3d a2 36 97 3d 07 3b c0 3d c1 06 02 be
       0.065796435 0.07383467 0.093862586 -0.12697889
0000d0 ee c2 bc 3d 79 db 8e bd 5e a2 0d 3d 92 c0 78 bc
       0.092168674 -0.06975455 0.034578674 -0.015182631
0000e0 a3 6d 1c be 4e b0 72 bd fa 23 a0 ba 62 eb 29 be
       -0.15276198 -0.05925017 -0.0012217753 -0.16593698
0000f0 70 9d 1c bd c2 80 1f 3e 2c 3c 77 3d fd 6b 49 3d
       -0.03823608 0.15576461 0.06036012 0.04917525
000100 21 9e c5 3c 9b 3f df bd a7 6a 82 3a 47 73 8d 3d
       0.024123253 -0.10900804 0.0009949998 0.06906753
000110 15 51 a0 bd 7d 56 99 bd 25 da 94 bc 30 40 48 be
       -0.07827965 -0.074871995 -0.018170426 -0.19555736
000120 41 c9 27 be 76 07 4c 3d a3 1a 81 bd 4b 5f ee 3d
       -0.16385366 0.049811803 -0.06303909 0.116392694
000130 ac 23 e7 3c b3 41 7b 3d ad 0f f4 3d 2f a3 c4 bd
       0.028215252 0.061341953 0.119170524 -0.09601437
000140 bc c8 c1 bd a3 7d 04 be 1e 78 4c 3d 90 04 ed bd
       -0.09462115 -0.12938552 0.04991924 -0.11573136
000150 32 75 f8 3d a0 fc d6 3d 76 4f 45 bd 7c c9 9c bd
       0.12131728 0.10497403 -0.048171483 -0.076556176
000160 c7 db a4 bd b2 e7 59 3d a8 a5 d0 bd 22 36 29 bd
       -0.08049732 0.053199477 -0.101878464 -0.04131139
000170 f1 ce 73 3d 7e 78 90 bd cc 4c 01 3d fe 08 44 bb
       0.059523527 -0.07054232 0.03156738 -0.0029912586
000180 dd 95 34 be d3 6f 07 bd c8 de 69 3d 61 64 13 be
       -0.17635293 -0.03306563 0.057097226 -0.1439376
000190 a7 5c 36 3d 02 8e 60 3d 13 82 14 3d f0 9c e6 bd
       0.044521954 0.05482293 0.03625686 -0.11260402
0001a0 41 f7 86 3c de 61 0c be 82 8a b4 bd 58 97 79 bd
       0.016475322 -0.13709208 -0.08815481 -0.06093535
0001b0 87 12 c4 bd 57 98 ea bd 82 62 6e 3d bd 97 48 be
       -0.09573846 -0.11454838 0.058199413 -0.19589134
0001c0 7f 90 a4 bc 99 70 4e 3d d3 7a 67 bd df 5b 2d be
       -0.020088432 0.05040035 -0.05651362 -0.16929577
0001d0 08 9d 34 bd ee a8 cc 3d 0f ea 7d 3c ef 4e fa bd
       -0.04409507 0.09993158 0.015497698 -0.12222087
0001e0 e2 59 d7 bd 72 ab 03 bd 12 49 0d be c6 07 44 3d
       -0.10515191 -0.032145925 -0.13797405 0.047858976
0001f0 bf 3c 0f be 14 9d 88 bd f1 de 39 bd ec af fd 3d
       -0.13988017 -0.06670585 -0.04537863 0.1238707
000200 59 51 10 bc d4 c1 d6 bd 36 a2 c1 3d 20 e3 04 be
       -0.008808457 -0.104861885 0.094547674 -0.12977266
000210 de 56 91 3d 29 9a 7b bd 4e ef d9 bd 84 97 26 be
       0.07096647 -0.061426315 -0.10641347 -0.16268736
000220 13 d0 c7 bc 1a b3 8a bd 27 e5 de bd 88 83 0b 3e
       -0.02439121 -0.06772442 -0.10883551 0.13624394
000230 0e 2b c7 3d 71 e0 e3 bd 15 9b 43 be 76 d8 28 3d
       0.09725009 -0.11126793 -0.19102128 0.04122206
000240 65 4b 8e 3d 61 9a 1b bd 38 9c c0 bd 72 a0 ad bc
       0.06947974 -0.037989024 -0.09404796 -0.02119467
000250 96 1f a0 3d 96 9d a6 bd 08 26 91 3d 1a ac a2 bc
       0.078185245 -0.08135526 0.07087332 -0.019857455
000260 36 90 91 3d 08 7d 19 3d 42 6c db bd e7 ca cf 3d
       0.07107584 0.037472755 -0.10714008 0.101461224
000270 d4 b3 7a 3d b8 99 4e be 98 6d 93 bc cf 6c 12 bd
       0.061206654 -0.20175827 -0.017996594 -0.0357483
000280 09 6d 97 3d 97 e0 08 3e ad 63 8c bd b5 7c b1 bd
       0.07393844 0.13366924 -0.06854949 -0.08666364
000290 8d 91 45 3d eb f5 1b be 19 62 11 bd c9 ea e8 bd
       0.04823451 -0.15230529 -0.035493944 -0.11372907
0002a0 12 73 3e 3d 85 1d 2b bd be bb 07 3d 73 7e 7c 3c
       0.04649646 -0.0417762 0.03313803 0.015411007
0002b0 8a 41 5c 3d b3 5a 40 be 4d a1 1c 3d 00 b3 64 3d
       0.05377344 -0.18784599 0.038239766 0.05583477
0002c0 64 91 b2 bc 27 91 40 3d 19 b8 87 3d 7d 39 3e 3d
       -0.021797843 0.047013428 0.06626911 0.046441544
0002d0 19 a7 0a be d7 85 78 3d c2 6d a5 bd 04 2c 11 be
       -0.13540305 0.060674515 -0.08077575 -0.14176947
0002e0 38 ee 52 be af 46 34 be 23 3e 2b be 63 2d 96 3d
       -0.20598686 -0.17605089 -0.16722922 0.073328756
0002f0 2b 93 33 3d 14 22 47 3e b2 f8 3a bd ad 06 86 3d
       0.043841522 0.19446594 -0.04564733 0.06544242
000300 c0 31 ac 3c 1c a0 e3 bc 24 79 cf bd 40 39 3d be
       0.021019816 -0.027786307 -0.101305276 -0.1847887
000310 20 7a 2d be ec 86 8a bd 12 5b 01 bd 5b fe ae 3d
       -0.16941118 -0.067640156 -0.031580992 0.08544608
000320 ea 4f 86 3d 26 1c 86 3d f5 67 bf bd 3c 1a 42 be
       0.06558211 0.06548338 -0.09346 -0.1895532
000330 a8 f2 49 be dd 17 1c bd ca 12 21 3e 6c 0f 1b 3d
       -0.19721472 -0.038108695 0.15729824 0.037856504
000340 62 31 52 3d d3 ae 84 be df 75 21 3e cb 85 ed 3d
       0.051316626 -0.2591463 0.1576762 0.115977846
000350 f1 cf ff 3d a0 4c 38 3e 3c 96 03 be 00 45 bf 3d
       0.124908336 0.1799798 -0.12850279 0.093393326
000360 2a b1 63 3d 54 53 12 bd 40 d7 03 3e 02 d8 7e 3d
       0.05558888 -0.035724 0.1287508 0.06221772
000370 41 52 c4 bc 55 7e 49 3d 33 71 4e bd 0e 96 4f be
       -0.023965003 0.049192745 -0.050400924 -0.20272085
000380 aa ea e7 3d d2 2b 0b be df 96 2e be 05 f5 0f be
       0.113240555 -0.13590935 -0.1704974 -0.14058311
000390 f4 70 a7 bd 78 e8 7c bd bb 29 98 bd c7 a0 ac 3d
       -0.08175841 -0.061745137 -0.074298345 0.08429103
0003a0 f7 29 0b 3e f0 e7 5c be ae 0d 01 be ac 41 9c bd
       0.13590227 -0.21572852 -0.12602875 -0.076297134
0003b0 9b f7 96 bd 77 bf dc bd 9c 14 07 be c3 09 f3 bd
       -0.07371446 -0.107787065 -0.13191456 -0.11867096
0003c0 08 f7 5f bc 3e 69 43 3c 45 0a 33 be 1f 3a 8a 3d
       -0.013669737 0.011926947 -0.17484386 0.06749367
0003d0 b7 39 44 3d b8 13 8c 3d 4c 49 da bd d7 c9 08 3e
       0.047906604 0.068396986 -0.106585115 0.13358246
0003e0 1c 3d 0b 3e 94 8a af bc c2 d2 16 bd 75 f0 e9 3c
       0.1359753 -0.021428384 -0.036822088 0.028557042
0003f0 0e a0 d1 bd c1 12 2d bd 6f 7d a1 3d 16 de a7 3c
       -0.10235606 -0.042254213 0.07885253 0.020491641

fc2.bias f4 [10]
000000 68 c7 aa 3d e0 aa 46 3e d7 e6 d2 bc 35 f9 dd 3c
       0.08338815 0.19401121 -0.025744839 0.02709637
000010 62 ec 07 bd f9 39 57 bc 2b 1c ca bc e0 82 22 bc
       -0.033184417 -0.01313638 -0.024671635 -0.009918898
000020 9a a7 cf 3c a6 42 8a bd
       0.025348473 -0.067509934

fc3.weight f4 [18, 160]
000000 85 b8 43 bd b0 5d f9 bc 2a 51 07 3d 80 9f 81 bd
       -0.047783393 -0.030440181 0.03303639 -0.0632925
000010 de e7 40 bd 84 1d b8 3c 7f 95 83 bd 80 86 fd 3b
       -0.047096126 0.022475012 -0.064249985 0.007736981
000020 40 b6 dc bb f6 c5 0c 3d 53 dd 9e 3d 78 26 0a bc
       -0.006735593 0.034368478 0.07757058 -0.008432023
000030 70 ff 90 bb a1 07 9a bd 52 68 38 3d 00 f4 83 bc
       -0.004424982 -0.07520986 0.045021363 -0.01610756
000040 d8 75 4a bc 00 3f 7d 3a d0 e7 f2 bb 40 1d 19 bd
       -0.012357198 0.0009660572 -0.007412888 -0.03738141
000050 8a a6 1d bd c2 94 21 3d 50 72 7f 3c 40 88 12 bc
       -0.038488902 0.039448507 0.015591219 -0.008943617
000060 90 61 b9 3b 4a 15 98 bd 66 e4 33 3d 16 f5 d6 bc
       0.0056573823 -0.074259356 0.04391899 -0.026239913
000070 09 26 87 bd 82 07 83 bd aa f0 26 3d aa 54 98 bd
       -0.065990515 -0.063979164 0.04075686 -0.074380234
000080 80 c8 a4 3c 89 5a 9a 3d 42 f1 3c 3d 69 b0 93 3d
       0.020115137 0.075367995 0.04612852 0.07211382
000090 dc 14 22 bd ca b2 70 bd 95 5a 35 bd 4c e3 22 3d
       -0.039570674 -0.058764257 -0.04427584 0.03976755
0000a0 e3 d0 1c bd f5 49 84 3d 1c 27 24 3d d0 45 e2 bc
       -0.038285147 0.06459419 0.04007636 -0.02762118
0000b0 b7 b8 1c bd e4 c0 ca bc 40 09 fe 3a 70 f4 4e bc
       -0.038262095 -0.02475018 0.0019381419 -0.012631521
0000c0 3d 81 11 bd fe ec 04 3d ec 49 e9 3c 6e d2 91 bd
       -0.03552364 0.032452576 0.028477632 -0.071202144
0000d0 29 7b 31 bd ae f5 89 bd 34 2b 53 bd 6a 40 cb bc
       -0.043330345 -0.06736313 -0.051554874 -0.024810988
0000e0 6b de 04 bd 72 58 b7 bc ee 61 66 3d 30 c8 07 3c
       -0.032438677 -0.022381041 0.056245737 0.0082874745
0000f0 80 34 e8 3b 7c 76 7e bd b0 de 98 3c 3b 38 88 3d
       0.0070863366 -0.062124714 0.018660873 0.0665135
000100 78 15 23 3d 58 cf cb 3c a0 48 a2 3c 68 e8 24 3c
       0.039815396 0.024879143 0.01981002 0.010065176
000110 ea 0c 8b bd dc 2a 88 bd 13 fd 89 3d fd 89 8a 3d
       -0.067895725 -0.066488 0.06737723 0.067646004
000120 3c f6 8c 3c 88 98 12 3c d0 da cb 3c cc 7e 17 3d
       0.017207257 0.008947499 0.024884611 0.036986157
000130 30 fc 1d 3d 90 46 67 bc 06 2e 5e 3d 4c 36 85 bc
       0.038570583 -0.0141159445 0.05424311 -0.016261242
000140 b9 0c 28 bd 6c 80 ad bc 10 6c fa bc fe 56 24 3d
       -0.04102776 -0.0211794 -0.030569106 0.040122025
000150 f9 ad 6e bd 4c 5a 99 bd 28 a7 35 3c 30 76 10 3d
       -0.058271382 -0.07487926 0.011087216 0.035268962
000160 6e 8c 20 3d 47 d7 8c 3d f6 70 6c bd b8 93 68 bd
       0.039196424 0.068769984 -0.057724915 -0.0567815
000170 70 db c8 bb 46 8b 3f 3d b8 53 8d 3c 08 78 1f bc
       -0.0061296746 0.04676368 0.017251834 -0.0097332075
000180 f4 37 4b bd 50 83 f6 3b da 06 f0 bc 98 28 55 3c
       -0.049613908 0.007522978 -0.029300142 0.013010167
000190 f4 e9 a5 bc ef 7d 92 3d 9a 1f 77 3d 13 3f 98 3d
       -0.02025316 0.07152926 0.060332872 0.074339055
0001a0 f0 88 09 3d d8 45 51 3c b4 25 4a bd 64 f6 1e 3d
       0.03357786 0.012773 -0.049352363 0.038809195
0001b0 4a 71 53 3d 22 2e 8b bd 00 16 5b ba 9a a4 60 3d
       0.051621713 -0.067959085 -0.0008357465 0.054844476
0001c0 68 2e 21 3d 0c 9d cf 3c 06 5b 17 bd 80 8d 88 3b
       0.039350897 0.02534344 -0.03695204 0.0041672587
0001d0 10 b7 4b bc 9f 37 87 bd f9 34 15 bd 70 de fd bc
       -0.012433782 -0.06602406 -0.03642747 -0.030989856
0001e0 94 84 2c 3d 43 84 29 bd 20 82 05 bd e8 fb 3a bc
       0.042118624 -0.0413859 -0.0325948 -0.011412598
0001f0 40 4a ad bc f8 44 8a bd 30 19 92 bb 18 8c 63 3c
       -0.02115357 -0.06751436 -0.004458569 0.013888381
000200 c0 fe 56 3b fa 98 64 3d 0f 31 28 bd db 24 87 3d
       0.0032805651 0.055809952 -0.04106241 0.065988265
000210 08 44 cf bc 98 63 27 bc fc e5 61 bd 0e c3 1f 3d
       -0.025300995 -0.010216616 -0.05515097 0.039004378
000220 64 0c 26 3d f8 be 41 bc 9d 25 0b bd 50 4a 91 3b
       0.04053916 -0.011825316 -0.033971418 0.0044339076
000230 b2 6e 5a bd bc 18 7b bd 65 ca 07 bd 10 84 1a bd
       -0.053328224 -0.061302885 -0.033152003 -0.0377236
000240 37 42 67 bd 6c 08 8f 3c 66 c7 61 3d a6 bb 49 bd
       -0.05645963 0.01746007 0.0551218 -0.04925122
000250 ce da 46 3d ce 73 5a 3d a8 5a 46 bd e0 dc 60 bc
       0.048548512 0.053333096 -0.0484263 -0.013724536
000260 42 8f 5f bd f8 3f 61 3c f1 ea 91 3d dd d1 15 bd
       -0.05457998 0.0137481615 0.0712489 -0.036577094
000270 02 41 57 bd 50 83 f3 3b b8 78 57 3c 40 ca d4 3a
       -0.05255223 0.007431425 0.01315134 0.0016234592
000280 92 ce 18 3d 70 f7 b6 3c 6c 31 95 3c d4 1b 1b 3d
       0.037306376 0.022334784 0.018212043 0.037868336
000290 9f 29 90 3d 15 9f 8f 3d 00 50 46 3a f8 2b 86 bd
       0.070391886 0.07012764 0.00075650215 -0.06551355
0002a0 68 41 25 bd fc a0 32 3d f0 31 b2 bb e8 97 18 bc
       -0.04034558 0.043610558 -0.005438082 -0.009313561
0002b0 2e e0 0a 3d e0 5e 09 3b e6 18 45 bd ab 19 77 bd
       0.0339052 0.002096109 -0.048119448 -0.060327213
0002c0 0e 03 6a 3d 22 ba 64 3d 8e f8 73 3d 52 9b 73 3d
       0.05713182 0.055841573 0.059563212 0.059474297
0002d0 05 e6 9d 3d b2 8d 61 3d d5 50 84 3d a1 b8 97 3d
       0.07709888 0.05506677 0.0646073 0.07408262
0002e0 32 74 76 3d 62 07 3b bd 18 a9 41 3c df 4e 8c 3d
       0.060169406 -0.045661338 0.0118201 0.06850981
0002f0 06 cd 5c 3d dc 09 0a bd 00 e0 a2 38 00 24 79 3b
       0.053906463 -0.03370081 7.766485e-05 0.0038015842
000300 10 31 a5 3b 29 2c 4f bd c2 02 79 3d da b7 4a 3d
       0.005041249 -0.050579224 0.060793646 0.04949174
000310 7a ff 3a bd b0 ad 73 bc 78 49 71 bc 70 c0 a9 3c
       -0.045653798 -0.014872953 -0.014726989 0.020721644
000320 e6 66 72 bd 48 db 61 bd 68 e6 74 bc 7e 35 86 bd
       -0.059180163 -0.055140764 -0.014947511 -0.065531716
000330 a7 60 12 bd 40 45 5b bc 40 8b 50 bb 80 64 22 3d
       -0.035736706 -0.01338321 -0.003182128 0.039646626
000340 08 67 c0 3c 9d e1 8c bd 9c ac 24 3d 96 15 88 bc
       0.02348663 -0.0687897 0.040203676 -0.016611855
000350 00 67 73 bb b0 6d ae 3c 88 47 25 bd b2 81 56 3d
       -0.003714025 0.021292537 -0.04035142 0.05236978
000360 70 cc 62 3c 50 9a 85 3b e0 5d 29 bc 66 f9 fd bc
       0.013842687 0.0040772334 -0.010337323 -0.031002712
000370 00 5d 56 bb 6a 9c 42 3d b6 0e f9 bc 80 27 2c bb
       -0.003270924 0.04751245 -0.030402523 -0.002626866
000380 a3 9b 80 3d 26 42 9e bd 26 e0 55 bd 18 ff 5f 3c
       0.06279685 -0.077274606 -0.052215718 0.013671659
000390 d1 b7 92 3d 22 70 47 3d 2b 93 62 bd 50 6f 7d bd
       0.071639664 0.048690923 -0.05531613 -0.061873734
0003a0 40 89 77 3b bc 4d f1 3c ed df 95 3d e8 b0 1c bc
       0.0037771016 0.029456012 0.07318101 -0.009563662
0003b0 da 10 c3 bc 80 ad 04 3c ca 5d 46 bd 05 68 87 3d
       -0.023811746 0.008098006 -0.048429288 0.06611637
0003c0 54 60 86 3c 66 e2 07 3d 54 40 84 3c c0 c0 94 bd
       0.016403355 0.033174895 0.016143955 -0.07263327
0003d0 f0 f5 79 3c 8f 03 94 bd e4 9a 4c bd b4 e1 f1 bc
       0.01525639 -0.07227241 -0.049952403 -0.029526569
0003e0 ce 0f 5e 3d b2 9f 7c 3d 70 97 af 3b 34 52 b5 bc
       0.05421429 0.061675735 0.005358629 -0.022133924
0003f0 98 41 91 3c 88 0c 60 bd 64 e8 1d 3d cc 13 92 3c
       0.017731473 -0.05469945 0.038551703 0.017831706

fc3.bias f4 [18]
000000 b6 8f 70 3d ae 7a 8f bd 20 28 2d 3b ac 4e 8e bd
       0.058730803 -0.07005821 0.0026421621 -0.06948599
000010 ac 06 7d bd c0 1d 91 bb 00 d5 c8 bb 20 11 05 3b
       -0.06177394 -0.0044285953 -0.006128907 0.0020304397
000020 f7 63 a0 3d f2 c0 8d bd 00 dd 84 bd 2a 68 47 3d
       0.07831567 -0.06921567 -0.06487465 0.048683323
000030 78 17 63 bd ea 75 06 3d cc 9f 03 3d 85 a4 1e bd
       -0.055442303 0.032827295 0.032134816 -0.038731117
000040 50 a9 80 bd d0 45 1d bd
       -0.06282294 -0.038396657
